data.pth (torch, 7167 bytes, 6 tensors)

l1.weight f4 [8, 100]
000000 38 65 f6 bc f4 79 1f 3f 72 59 47 3e e9 b2 c5 3e
       -0.030077562 0.6229546 0.19467714 0.3861306
000010 a5 b9 39 3e fc 3a f6 3e cb 38 b6 3e 59 69 40 3f
       0.18137224 0.48091877 0.35590205 0.7516075
000020 91 30 b6 3e 71 0f 52 3e 3d 6e de 3e 25 46 9c bd
       0.35583928 0.20513703 0.4344348 -0.076305665
000030 b3 86 01 be e5 17 9c 3e ae 39 fc 3e c6 1b d0 3e
       -0.1264904 0.3048698 0.49262756 0.4064619
000040 65 58 02 be b6 eb f1 be 5c 79 6d 3e 77 cf 35 3e
       -0.12729032 -0.47250146 0.23190826 0.17754923
000050 01 e2 3d 3d 96 61 db 3e 39 d7 4a 3f f4 04 36 3e
       0.046358112 0.4284789 0.79234654 0.17775327
000060 78 27 6d 3e e9 22 95 bc 5e a6 d8 3e f1 2c fd 3e
       0.23159587 -0.018205123 0.42314428 0.4944835
000070 37 ac 94 bd f9 2d 39 be e4 5e 30 3f b1 df 05 3f
       -0.0725941 -0.18083943 0.6889479 0.5229445
000080 05 de de be 2c 37 1c 3d 94 d8 de be a8 d5 de be
       -0.43528762 0.038138554 -0.4352461 -0.43522382
000090 aa f7 d2 3e b7 d4 35 3f d3 58 9b 3b 09 4b bc 3e
       0.41204578 0.710277 0.0047408133 0.36775997
0000a0 53 95 cd 3e ee 65 3d 3e 4c 26 98 3e 08 8d e4 3e
       0.40152988 0.18495914 0.29716718 0.44638848
0000b0 b9 15 09 3f 1b 74 1e be a4 99 35 3e 09 50 8f 3e
       0.5354877 -0.15473978 0.1773439 0.2799075
0000c0 df 64 10 3e 8f cd c3 3e f6 5e bd 3b 32 db 06 be
       0.1410098 0.38242766 0.0057791425 -0.13169554
0000d0 cd b8 91 3e e0 b7 c2 3c f5 34 fa 3e eb b4 cb 3e
       0.28461304 0.023769319 0.48868528 0.39786467
0000e0 39 57 b0 3d 63 74 a9 3e 18 3f d8 3c 7f c1 1b be
       0.086103864 0.3309661 0.026397273 -0.15210532
0000f0 62 bc 2d 3f f0 5d 93 3e 82 a6 a3 3e b4 de 5c be
       0.67865574 0.28782606 0.31962973 -0.2156933
000100 9d c4 5d 3e 85 a3 05 3f 30 9c 45 3e 1f f6 c5 be
       0.21657033 0.52202636 0.19297862 -0.38664338
000110 cb 76 d7 3e c0 5f f7 3e 80 9c 32 3f 7f 0e 87 be
       0.4208282 0.4831524 0.6977005 -0.26378247
000120 0b bc c2 bd b3 14 82 3e 46 66 7e 3e 08 db 9b 3e
       -0.095085226 0.25406417 0.24843702 0.30440545
000130 1d f1 94 3e 34 5a 73 bf ac 8f 90 3e 76 ef bf be
       0.29090205 -0.95059514 0.28234613 -0.37487382
000140 ab 26 b6 3e ab 59 09 3f f5 0c bd be 63 31 dd 3e
       0.35576376 0.5365245 -0.36923948 0.43201742
000150 a8 66 e8 3d df 55 be 3e 53 6d 65 bd 8e 78 52 3e
       0.11347705 0.3717489 -0.056012463 0.205538
000160 92 35 cd 3e e8 11 ae 3e dd 1b 67 3e 94 b8 98 3e
       0.40079933 0.33998036 0.22569223 0.29828322
000170 76 e3 de be 54 95 c6 3d 44 9e b0 3e 17 b2 1c 3f
       -0.43532914 0.09696451 0.34495747 0.61209244
000180 b8 38 9f 3e aa 3f 51 3e 9c af b5 3e f1 2f 19 3f
       0.3109796 0.20434442 0.35485542 0.5983878
000190 37 de c7 bc 35 13 12 3c f9 c8 b9 3e 51 51 09 be
       -0.024397952 0.008915712 0.36286142 -0.13409926
0001a0 90 4e 04 3f 1c aa 9f be 2c e5 f2 bd b5 f3 24 bf
       0.51682377 -0.3118447 -0.11860117 -0.6443437
0001b0 e9 1c e4 3d a2 23 84 3e c8 f8 ea be aa 53 57 3d
       0.11138327 0.25808436 -0.4589293 0.052570023
0001c0 e4 84 e6 3d 35 d5 03 3f 24 6c 57 be 14 9b f5 be
       0.112558156 0.51497203 -0.21037346 -0.47969878
0001d0 cd 75 11 3d c9 87 8f 3f 51 ec 9c 3e db 7b 27 3e
       0.035512734 1.1213313 0.30649045 0.16355841
0001e0 41 b6 25 3f 31 66 8f 3e d5 1c 5c bf eb fd 82 3d
       0.6473122 0.28007653 -0.85981494 0.06396087
0001f0 35 08 77 3f 0a 5d 0a 3f 83 61 d9 be 4b f4 b8 3e
       0.964969 0.54048216 -0.42457208 0.3612388
000200 56 d9 2e 3d c1 17 9d bd df 40 f7 3e 63 c7 5a bd
       0.042687736 -0.07670546 0.4829168 -0.053412806
000210 9d dc 86 3f d3 d0 f4 be 93 b3 7f 3f e0 76 8a 3f
       1.0536076 -0.4781557 0.99883384 1.0817528
000220 e0 2b e3 be dc 18 e6 3e e4 ea b0 3d 01 ef a6 3e
       -0.4436941 0.4494084 0.08638552 0.3260422
000230 98 e4 c9 3e 79 69 cf 3e 31 bf d0 3e 06 1d 9f 3e
       0.39432216 0.40510157 0.40770867 0.3107683
000240 65 de d1 be 92 99 8a 3e d0 f5 eb 3e 48 f9 94 be
       -0.40989986 0.2707029 0.46085978 -0.29096437
000250 5e 3c 85 3e cb 00 d0 3e b4 c1 12 be 42 48 83 3d
       0.2602262 0.40625605 -0.14331704 0.064102665
000260 80 c9 95 3d d5 6d 9a 3e 78 12 25 bf 42 11 e2 bb
       0.07313824 0.3016192 -0.64481306 -0.00689903
000270 3c fb 2c 3e c6 94 cb 3e 8b 6c da 3e 1f b9 dc 3e
       0.16892713 0.39761943 0.42660937 0.43109986
000280 39 c8 bb 3e e4 af 61 be 34 37 fe be 55 66 45 3e
       0.36676195 -0.22039753 -0.49651492 0.19277318
000290 18 71 ea be ad d9 1e bf 58 bb f7 3e 68 c0 ef 3e
       -0.4578941 -0.62050897 0.4838512 0.46826482
0002a0 a4 6d 91 3e f6 33 fc 3e 84 75 fa 3e c9 bf 8a 3e
       0.28403962 0.49258393 0.48917782 0.27099445
0002b0 84 a2 cc 3e dc 6d 0a 3f ae ba a4 3e 77 e2 07 3f
       0.3996774 0.5407388 0.32173675 0.5307993
0002c0 6b 5e 10 3f 5e ee 32 3e 68 3c b5 3e 0f e1 d8 3e
       0.5639407 0.17473742 0.3539765 0.42359206
0002d0 f5 63 91 be ac 95 99 be 72 5e f5 3e 4f 3c 68 bf
       -0.28396574 -0.29997003 0.4792362 -0.90717024
0002e0 b1 cb bd be 3b c9 cb bd 36 76 0a 3f 62 d0 0c 3f
       -0.37069467 -0.09950491 0.54086626 0.55005467
0002f0 67 b6 f3 be 98 e8 db 3e 88 ad 72 be 26 3f d3 3e
       -0.476001 0.42950892 -0.2369901 0.41259116
000300 64 b1 80 3f a4 c1 9d be b9 22 3f 3e 9b b6 28 3e
       1.0054135 -0.308118 0.1866559 0.16475908
000310 8e 55 b1 bd 03 5f c3 3e 4d 5a 15 bd f9 3a 03 3d
       -0.086588964 0.38158426 -0.03646307 0.032038663
000320 68 c2 06 3f d7 ff d6 3d 81 2a 5e be 24 b3 e2 bd
       0.5264039 0.10498016 -0.21695901 -0.110693246
000330 f6 f1 fb 3e b0 94 de 3d 57 c8 14 be bb ec 19 bc
       0.4920804 0.10868204 -0.14529549 -0.00939482
000340 aa 87 bd bd 28 58 cf 3e f8 04 92 3d df 5f ce bd
       -0.092543915 0.40496945 0.07129854 -0.1007688
000350 db fb e7 3e 53 20 ee 3c ec 26 3d bd be 60 cd bd
       0.45309338 0.029068148 -0.046179697 -0.10028218
000360 5e 74 b6 3e 60 4c fd 3e 96 43 f6 3e ed 49 10 3f
       0.35635656 0.49472332 0.4809844 0.563628
000370 48 38 e0 be 19 cb 9f 3d 28 dc af 3f 72 0b 24 3f
       -0.4379294 0.0780241 1.3739061 0.64079964
000380 aa fe 9c be 7c 19 89 be fa 11 88 bd f0 f9 a7 be
       -0.30663043 -0.26777256 -0.06644054 -0.32807875
000390 86 03 fd bd 46 0a 33 3e be 9a c1 be 8d 80 99 3e
       -0.12354188 0.17484388 -0.3781337 0.2998089
0003a0 81 c6 d0 3d 9f 7e 78 3d 6c c0 b6 3d 13 c7 62 3d
       0.101941116 0.06066763 0.0892342 0.055365633
0003b0 35 51 65 3e 73 2d 36 3f bc d5 ec 3e 0b 48 86 3f
       0.2239426 0.711631 0.46256816 1.0490736
0003c0 86 34 2e be f2 3b 38 be be 2a 8a be e5 7d 6a 3f
       -0.17012224 -0.17991617 -0.26985735 0.9159835
0003d0 53 83 d7 bd af b4 cd bc 7b cf 96 3e 32 d9 58 3e
       -0.10523095 -0.02511057 0.2945517 0.21176603
0003e0 5d 54 ce 3e c3 cc 12 be c8 45 c7 bd f3 d9 35 3d
       0.4029874 -0.14335923 -0.097301066 0.044397306
0003f0 e5 29 3b 3f 7f 8c 12 be c0 4e a9 3e 2e 7b 42 3f
       0.731108 -0.14311408 0.33067894 0.7596921

l1.bias f4 [8]
000000 7e db de 3e db 90 9b 3f 02 45 fe 3e c3 2c 2b 3f
       0.43526834 1.2153581 0.49662024 0.66865176
000010 55 72 50 3f 32 20 0f 3f 00 c9 72 3f 33 ad 38 3f
       0.81424457 0.559085 0.9483795 0.7213928

l2.weight f4 [8, 8]
000000 99 06 9b 3f 79 c3 19 be 1a 70 88 bf 3b 64 22 bf
       1.2111388 -0.15015973 -1.0659211 -0.6343419
000010 e9 53 8c be 79 7a 4e 3f d8 e8 da 3f b2 ab 9c 3f
       -0.27407768 0.8065563 1.7102308 1.2239897
000020 33 fe a9 3e 2f f3 46 3e d5 89 01 3e da 08 d2 3f
       0.3320175 0.19428705 0.12650235 1.6408951
000030 26 db 19 3d 49 44 b0 bf 73 de 8a 3f 20 60 01 bf
       0.03756251 -1.3770839 1.0849136 -0.505373
000040 63 e5 97 3f e6 71 4c 3e 1b dc ad 3e 7c 9d 82 3f
       1.1866878 0.19965324 0.3395699 1.020431
000050 61 6c d5 3f dd e3 99 3f e7 e7 b7 bf f3 41 cc 3f
       1.66737 1.2022663 -1.4367646 1.5957626
000060 d0 f6 89 bd e5 fa bc bd 09 1b 19 be 0e a7 38 be
       -0.06736529 -0.09227542 -0.1495172 -0.18032476
000070 8f 2a 8f 3e 4a dd 56 3e 7d 50 f7 bd 96 a4 c6 be
       0.27962157 0.20982853 -0.12075899 -0.38797444
000080 df 21 dd 3f 00 98 74 3d d0 9a cb 3f 22 58 99 3f
       1.7275962 0.05971527 1.590662 1.1980021
000090 9e 1c 69 bf 74 7f 99 3f 72 b5 41 3f 66 52 63 bf
       -0.9105929 1.1992021 0.7566749 -0.88797605
0000a0 4c f8 b7 be 62 38 06 40 c9 8b 9f 3e d5 fe c1 bf
       -0.35931623 2.0971913 0.31161335 -1.5155894
0000b0 dd 77 91 3f 33 40 5b 3f 83 cf 3c 3f 50 02 a6 3e
       1.1364704 0.85644835 0.7375414 0.3242364
0000c0 7c e8 1e be 90 f6 10 3d a1 c2 62 3e 2b 16 ad 3d
       -0.15518373 0.03539139 0.22144558 0.08451494
0000d0 45 8c 9c be 5b 9a ea 3c 88 8a bd be 33 ce dc 3d
       -0.30575767 0.028638056 -0.37019753 0.10781517
0000e0 63 c7 0c bf 18 fa f1 3f 29 cb 86 bf c3 a4 3a 3e
       -0.5499174 1.8904448 -1.053075 0.18226914
0000f0 ca db e8 be 01 65 67 be 14 af d6 3f 13 19 b9 be
       -0.45480186 -0.22597124 1.677218 -0.36151943

l2.bias f4 [8]
000000 16 2a c1 bc 7f ea 53 3f 1d 63 87 3e 55 16 8c be
       -0.023579638 0.8277969 0.26442805 -0.27360788
000010 41 e6 f1 be 37 3a 00 3f f6 29 ae be 91 71 89 3f
       -0.47245982 0.5008883 -0.3401639 1.0737783

l3.weight f4 [12, 8]
000000 ec 6e 5d 3f c4 1d e6 bf ee 9c 3a 3e 24 1c c2 3d
       0.8649738 -1.7977834 0.18223926 0.09478024
000010 33 e2 ea 3e 10 c4 5e bf 6d 05 87 be 0f 40 6e bf
       0.458757 -0.8701792 -0.26371327 -0.93066496
000020 ca bc 94 bd f8 81 86 3c 82 7f 68 3f 44 e4 60 3e
       -0.07262571 0.016419396 0.9081956 0.21962076
000030 04 61 ab bd ed 07 b5 bf e9 9b 84 bd 56 71 ae bf
       -0.08368114 -1.4143044 -0.0647505 -1.3628337
000040 46 a6 b0 bf fa 14 71 bf d6 4f 09 bf 98 db 35 3e
       -1.3800743 -0.9417263 -0.53637445 0.1775955
000050 70 5a d1 3e bd 0a db 3e 2e 40 28 be 43 7d f9 bd
       0.4088931 0.4278163 -0.16430733 -0.12182095
000060 af 6e bd bf 2b 31 d6 3e b7 11 54 bc e3 26 9a 3e
       -1.4799403 0.41834387 -0.012943677 0.30107793
000070 d0 56 2e 3f 45 8a 9b bf 27 76 5f be 41 7d ae bf
       0.68101215 -1.2151572 -0.21822415 -1.3631974
000080 ee de 57 3f 8c 52 e4 bf cb cd 7e 3e d9 54 05 be
       0.8432454 -1.7837691 0.24883191 -0.13020648
000090 11 89 8f bf 96 74 a1 3e 72 7d b8 3d 9c 01 49 be
       -1.1213704 0.3153426 0.09008302 -0.1962952
0000a0 5e 08 3d 3f 49 b5 10 bf b8 a9 92 bf c0 00 8e be
       0.7384089 -0.5652662 -1.1458044 -0.27734947
0000b0 b7 a1 c0 bd 91 32 5f be 26 25 97 be ac 6c 53 3e
       -0.09405845 -0.21796633 -0.2952053 0.20646924
0000c0 da e6 05 c0 42 d3 4b 3f f5 c3 f2 3e b1 d8 8c 3e
       -2.092215 0.7961923 0.47415128 0.27509072
0000d0 aa fc d2 be 83 3f 93 bf 10 90 17 be 16 f4 19 3f
       -0.41208392 -1.1503757 -0.14801049 0.6013807
0000e0 ed 85 f3 bf f8 3a 90 bd 0c 0e c0 be a0 9e a3 be
       -1.9025246 -0.070424974 -0.37510717 -0.3195696
0000f0 9e ed f0 bf 57 f8 54 3f 77 84 ec bd 76 02 1e 3f
       -1.8822515 0.83191437 -0.11548703 0.61722505
000100 dc 3e c9 bf 15 be e6 bf 8b ab 0c 3f 21 ff 16 be
       -1.5722308 -1.8026758 0.54949254 -0.14745761
000110 aa d1 90 bf d9 55 67 3f d4 ba 9f 3d 61 fb b5 bf
       -1.1313984 0.9036537 0.077993065 -1.421734
000120 4f e2 ba bf 7b be 8f bf 1c 93 fb 3e ee eb 31 be
       -1.4600314 -1.1230005 0.49135673 -0.17375156
000130 b9 e8 eb 3e 5d 0f 60 3c 47 92 95 be 9c ce d6 bf
       0.4607599 0.013675538 -0.29213163 -1.6781802
000140 c9 79 57 3f bb 87 06 be 61 d7 e4 bf 19 f6 16 be
       0.84170204 -0.13137715 -1.7878228 -0.14742316
000150 ad 9d 26 c0 1f 9a de 3e 10 86 f2 3d 4f ef 0b 3f
       -2.6033738 0.4347696 0.11841977 0.5466203
000160 d3 b8 20 3e 83 3a 6d 3f b4 09 ca bf dc 8a 99 3e
       0.15695505 0.92667407 -1.5784211 0.29988754
000170 46 c5 f4 bc 3d 3e e1 bf e1 e3 7b 3e 3f df 1f 3e
       -0.029879224 -1.7597119 0.24598648 0.15612505

l3.bias f4 [12]
000000 8a 1c ec be 74 1d b1 3d c6 23 20 3e 4c 50 02 bd
       -0.46115524 0.08648196 0.15638646 -0.03181486
000010 ac ac 00 be a4 82 e3 bc 19 77 80 3e 6e 03 f8 3e
       -0.12565869 -0.027772255 0.25090864 0.48440117
000020 f5 37 ea 3e 88 c6 1a bf a3 83 5a 3e bc 56 65 3e
       0.45745817 -0.60459185 0.21339278 0.22396368
